…
33:39.578265Z","shell.execute_reply":"2026-06-07T09:09:09.932557Z"}},"outputs":[{"name":"stdout","text":"\n════════════════════════════════════════════════════════════════════════════════════════\n  U-Net Architecture Summary\n  Input : (1, 3, 256, 256)   (batch × channels × H × W)\n════════════════════════════════════════════════════════════════════════════════════════\n  Layer                                    Output Shape                   Params  Trainable\n────────────────────────────────────────────────────────────────────────────────────────\n  inc.double_conv.0  (Conv2d)              (1, 32, 256, 256)                 864        864\n  inc.double_conv.1  (BatchNorm2d)         (1, 32, 256, 256)                  64         64\n  inc.double_conv.2  (ReLU)                (1, 32, 256, 256)                   0          0\n  inc.double_conv.3  (Conv2d)              (1, 32, 256, 256)               9,216      9,216\n  inc.double_conv.4  (BatchNorm2d)         (1, 32, 256, 256)                  64         64\n  inc.double_conv.5  (ReLU)                (1, 32, 256, 256)                   0          0\n  down1.maxpool_conv.0  (MaxPool2d)        (1, 32, 128, 128)                   0          0\n  down1.maxpool_conv.1.double_conv.0  (Conv2d) (1, 64, 128, 128)              18,432     18,432\n  down1.maxpool_conv.1.double_conv.1  (BatchNorm2d) (1, 64, 128, 128)                 128        128\n  down1.maxpool_conv.1.double_conv.2  (ReLU) (1, 64, 128, 128)                   0          0\n  down1.maxpool_conv.1.double_conv.3  (Conv2d) (1, 64, 128, 128)              36,864     36,864\n  down1.maxpool_conv.1.double_conv.4  (BatchNorm2d) (1, 64, 128, 128)                 128        128\n  down1.maxpool_conv.1.double_conv.5  (ReLU) (1, 64, 128, 128)                   0          0\n  down2.maxpool_conv.0  (MaxPool2d)        (1, 64, 64, 64)                     0          0\n  down2.maxpool_conv.1.double_conv.0  (Conv2d) (1, 128, 64, 64)               73,728     73,728\n  down2.maxpool_conv.1.double_conv.1  (BatchNorm2d) (1, 128, 64, 64)                  256        256\n  down2.maxpool_conv.1.double_conv.2  (ReLU) (1, 128, 64, 64)                    0          0\n  down2.maxpool_conv.1.double_conv.3  (Conv2d) (1, 128, 64, 64)              147,456    147,456\n  down2.maxpool_conv.1.double_conv.4  (BatchNorm2d) (1, 128, 64, 64)                  256        256\n  down2.maxpool_conv.1.double_conv.5  (ReLU) (1, 128, 64, 64)                    0          0\n  down3.maxpool_conv.0  (MaxPool2d)        (1, 128, 32, 32)                    0          0\n  down3.maxpool_conv.1.double_conv.0  (Conv2d) (1, 256, 32, 32)              294,912    294,912\n  down3.maxpool_conv.1.double_conv.1  (BatchNorm2d) (1, 256, 32, 32)                  512        512\n  down3.maxpool_conv.1.double_conv.2  (ReLU) (1, 256, 32, 32)                    0          0\n  down3.maxpool_conv.1.double_conv.3  (Conv2d) (1, 256, 32, 32)              589,824    589,824\n  down3.maxpool_conv.1.double_conv.4  (BatchNorm2d) (1, 256, 32, 32)                  512        512\n  down3.maxpool_conv.1.double_conv.5  (ReLU) (1, 256, 32, 32)                    0          0\n  bridge.maxpool_conv.0  (MaxPool2d)       (1, 256, 16, 16)                    0          0\n  bridge.maxpool_conv.1.double_conv.0  (Conv2d) (1, 256, 16, 16)              589,824    589,824\n  bridge.maxpool_conv.1.double_conv.1  (BatchNorm2d) (1, 256, 16, 16)                  512        512\n  bridge.maxpool_conv.1.double_conv.2  (ReLU) (1, 256, 16, 16)                    0          0\n  bridge.maxpool_conv.1.double_conv.3  (Conv2d) (1, 256, 16, 16)              589,824    589,824\n  bridge.maxpool_conv.1.double_conv.4  (BatchNorm2d) (1, 256, 16, 16)                  512        512\n  bridge.maxpool_conv.1.double_conv.5  (ReLU) (1, 256, 16, 16)                    0          0\n  up1.up  (Upsample)                       (1, 256, 32, 32)                    0          0\n  up1.conv.double_conv.0  (Conv2d)         (1, 256, 32, 32)            1,179,648  1,179,648\n  up1.conv.double_conv.1  (BatchNorm2d)    (1, 256, 32, 32)                  512        512\n  up1.conv.double_conv.2  (ReLU)           (1, 256, 32, 32)                    0          0\n  up1.conv.double_conv.3  (Conv2d)         (1, 128, 32, 32)              294,912    294,912\n  up1.conv.double_conv.4  (BatchNorm2d)    (1, 128, 32, 32)                  256        256\n  up1.conv.double_conv.5  (ReLU)           (1, 128, 32, 32)                    0          0\n  up2.up  (Upsample)                       (1, 128, 64, 64)                    0          0\n  up2.conv.double_conv.0  (Conv2d)         (1, 128, 64, 64)              294,912    294,912\n  up2.conv.double_conv.1  (BatchNorm2d)    (1, 128, 64, 64)                  256        256\n  up2.conv.double_conv.2  (ReLU)           (1, 128, 64, 64)                    0          0\n  up2.conv.double_conv.3  (Conv2d)         (1, 64, 64, 64)                73,728     73,728\n  up2.conv.double_conv.4  (BatchNorm2d)    (1, 64, 64, 64)                   128        128\n  up2.conv.double_conv.5  (ReLU)           (1, 64, 64, 64)                     0          0\n  up3.up  (Upsample)                       (1, 64, 128, 128)                   0          0\n  up3.conv.double_conv.0  (Conv2d)         (1, 64, 128, 128)              73,728     73,728\n  up3.conv.double_conv.1  (BatchNorm2d)    (1, 64, 128, 128)                 128        128\n  up3.conv.double_conv.2  (ReLU)           (1, 64, 128, 128)                   0          0\n  up3.conv.double_conv.3  (Conv2d)         (1, 32, 128, 128)              18,432     18,432\n  up3.conv.double_conv.4  (BatchNorm2d)    (1, 32, 128, 128)                  64         64\n  up3.conv.double_conv.5  (ReLU)           (1, 32, 128, 128)                   0          0\n  up4.up  (Upsample)                       (1, 32, 256, 256)                   0          0\n  up4.conv.double_conv.0  (Conv2d)         (1, 32, 256, 256)              18,432     18,432\n  up4.conv.double_conv.1  (BatchNorm2d)    (1, 32, 256, 256)                  64         64\n  up4.conv.double_conv.2  (ReLU)           (1, 32, 256, 256)                   0          0\n  up4.conv.double_conv.3  (Conv2d)         (1, 32, 256, 256)               9,216      9,216\n  up4.conv.double_conv.4  (BatchNorm2d)    (1, 32, 256, 256)                  64         64\n  up4.conv.double_conv.5  (ReLU)           (1, 32, 256, 256)                   0          0\n  outc.conv  (Conv2d)                      (1, 1, 256, 256)                   33         33\n────────────────────────────────────────────────────────────────────────────────────────\n  Total parameters                                                     4,318,401\n  Trainable parameters                                                 4,318,401\n  Non-trainable parameters                                                     0\n  Model size (MB, float32)                         
…
